model/keypoint_classifier/keypoint_classifier.tflite (tflite, 6616 bytes, 6 tensors)

sequential_1/dense_5/BiasAdd/ReadVariableOp f4 [5]
00000000: 30f0 00be d466 e2be af15 383f 3286 83bd
00000010: 46bf 02be
-0.12591624 -0.44219077 0.71908087 -0.0642208 -0.12768278

sequential_1/dense_4/BiasAdd/ReadVariableOp f4 [10]
00000000: 9b3b 18bf b5f5 9f3e 3973 563f 3db6 3abd
00000010: 996d 233f b600 c0be d147 883d 28bc b93e
00000020: 6fdc ca3e bf79 55be
-0.5946595 0.31242147 0.83769566 -0.045583952 0.6383911 -0.37500542 0.06654323 0.36276364
0.39621302 -0.20847224

sequential_1/dense_3/BiasAdd/ReadVariableOp f4 [20]
00000000: 9caa f1be 16fb 10bf a874 1ebf 1c44 173e
00000010: b7fc 21bf cc7b 42bf 300d 9ebd 43b0 f2be
00000020: 7efd 7cbe 695c 1b3e d2f4 70bf 6d0f adbe
00000030: 5d0b 12bf de44 b9be b469 c0be c3dc 15bf
00000040: a1df 24bf 9dc6 9bbe 28ef 72bf de78 903e
-0.47200477 -0.56633127 -0.61896753 0.14772075 -0.6327624 -0.7597015 -0.07717359 -0.47400102
-0.24706075 0.1517197 -0.94123566 -0.3380083 -0.5704859 -0.36185354 -0.37580645 -0.5853998
-0.6440373 -0.30424967 -0.94896173 0.28217214

sequential_1/dense_3/MatMul f4 [20, 42]
00000000: e524 48be 0c6c d93d e577 4d3e d760 0d3e
00000010: 1e27 403e e89b 3cbe a285 803e 49db babe
00000020: 8f91 713e 0bbf 08bf df8a 57be bd96 2f3c
00000030: 2a84 4cbd 8348 fcbc 819f a13c 8ef8 213d
00000040: 3855 153c bb3b c03c b7c7 dcbd 8c2b f739
00000050: 670f 0ebd 3a6a 54be 62cd 12be addd d7bb
00000060: 5391 61be 7dd8 473e 9a0c 973c fb2b 35bd
00000070: dda1 013c 3a83 6dbe 1269 13be 05d0 6a3e
00000080: fc92 95be bee5 383f 4853 193e 8a0e 0ebe
00000090: 76e5 0c3e 2c06 82bd 2b14 96bd b2fb b83e
000000a0: 6f14 aabe 1dab 5b3f 0485 8abe 0001 233d
000000b0: 7749 2e3f 3e9b ecbd 56dc f73e 67c4 b1bd
000000c0: 4fda 0b3e cb1e 423c e59b 283d 703c 55be
000000d0: b1be a33e b29b bc3e c576 1a3d 297f 523e
000000e0: f788 3ebe 1041 aa3d c4f2 6abe 86a4 76bb
000000f0: b6e6 023f bcaf 913b 70a5 92bc 8549 83bc
00000100: c456 32be fb71 863c 116d 0ebe 6dc0 5b3c
00000110: 8fcc c43e 8b49 923d e4ec ae3d e270 d5bc
00000120: 8748 4cbe 2c78 453b 1486 1ebe 692c 8b3b
00000130: 7f0a 113f 6485 48be 36f7 5c3e 8bcb c8bd
00000140: f45c a23c 3aeb c8bc a143 7ebd 6c15 743c
00000150: d4b9 db3d 0051 edbc e137 a9bd 4580 163f
00000160: d42b 843d 4e2f 303e 76fc 003e 35d5 1d3e
00000170: 0401 503e 4e46 4d3e 3251 473d 7971 94bd
00000180: f0c4 2ebd d2b0 0f3d 5937 e03c 734d 073e
00000190: 0d59 413d 7e1a eb3d 5f9f 8c3e cc00 78bd
000001a0: da4f 7c3d 8fd3 82bc a322 24be bc9c eabd
000001b0: e9ef 9abe 0654 38be 287b 2d3e 22dc 58bd
000001c0: 8373 95bd c209 41bd 52fe 05be 3127 abbe
000001d0: 8cc5 31bf 956a cebe d265 683e 1a80 36bd
000001e0: 892c 68bd fafd 47bd f776 b6be 82da d5be
000001f0: 9cf9 0abf 597a 23bf 0301 5ebe d426 403e
00000200: 8b6b 05be 2d58 ef3e e9a2 98bd a811 dd3e
00000210: 1f26 a4bc 22df c03e a2cb 2cbc bcf2 b33e
00000220: 8148 0fbe b6c7 fc3c 189a 743c 92f2 013d
00000230: db9b de3d d984 15be b2ba 943e 16a4 a8bf
00000240: 257f a3bd b055 c83d 1cf6 a3bd 4c26 2c3e
00000250: 8253 99bd 9c0f 373e fbf9 123b 9c88 073e
00000260: 1387 09bd 2c26 dc3d f139 b8bd f138 003e
00000270: ba79 dcbd 29cb 3f3d 1050 7ebc d388 1a3c
00000280: 60c9 203e ad23 f53d 1325 a1bd a14a ea3d
00000290: 4f6b b1bd 0770 ae3d e02e e23d 4098 573c
000002a0: f089 67bd 6463 6c3e 6450 c1bd 7a15 003f
000002b0: 1ba9 80bd 4775 ad3d c260 1dbe a46e 52be
000002c0: 039b debc 41e7 ebbd ed63 f8be 78c3 87be
000002d0: 91ed 44bd 3695 42be 12dd e73d ce30 66bb
000002e0: 59ad 5d3e d526 6dbb 5081 4ebf 3c5b 56bd
000002f0: 328f f1bd 0cc7 83bd f05c a23e d9af e73d
00000300: 2b45 a33e e871 b83d bc25 22bf 36c8 38be
00000310: 6fc8 23be 1c55 60bb 65d3 2e3e 93ea a33d
00000320: 2282 8f3e 45df a03d 2577 36bf c55d 24be
00000330: 4916 32be 5117 7cbe 56ba 2f3d 1ace e2ba
00000340: 12ce 263e 58d0 c43d 5463 523e 766d 8abd
00000350: c07c 703e 230d ddbe 4d2d 053f c908 09bf
00000360: 2224 ee3e 2c56 0ebf 9956 2f3e a443 0abf
00000370: 0c96 b7bc dfea 5b3d 0f79 4b3e f714 fb3a
00000380: fa2f 3b3e 0d10 443e 83cf 84ba d153 863e
00000390: 1725 b5be 9da2 833b c784 723e 053b e5bd
000003a0: 30e6 9d3d 15aa ef3d 4d96 98bd 310c ac3d
000003b0: 9dbd 5cbe 00d5 9dbd 4e45 3c3e 7686 b4be
000003c0: a695 673e c9d4 26bd fbb4 763d 4926 89bc
000003d0: ccce 01be a68e a6be 810c 763d 21ed 8abe
000003e0: 3f2c 963d b733 95bd 2f02 3a3d 8fe1 913c
000003f0: 8260 833e a80d 903e 4b7c 073f c682 143f
-0.19545324 0.106163114 0.20065267 0.13806473 0.18764922 -0.18418849 0.25101954 -0.36495426
0.23590682 -0.5341651 -0.21049069 0.010717091 -0.04993073 -0.030796295 0.019729378 0.03954368
0.009114556 0.023465982 -0.1078028 0.00047143956 -0.034682658 -0.20743647 -0.1433616 -0.006587705
-0.22028093 0.19516177 0.018438626 -0.044231396 0.007912126 -0.2319459 -0.1439555 0.22930916
-0.29213703 0.7222556 0.14973176 -0.13872734 0.13759407 -0.063488334 -0.073280655 0.36129528
-0.33218715 0.85807973 -0.27054608 0.039795876 0.6808085 -0.115530476 0.4841029 -0.08680039
0.13657497 0.011848162 0.041164298 -0.20823836 0.31981423 0.36837536 0.037710924 0.2055632
-0.18606935 0.08313191 -0.2294417 -0.0037634685 0.51133287 0.004445998 -0.017901152 -0.016026268
-0.17415911 0.016411772 -0.13908793 0.013412577 0.38437316 0.071429335 0.08541277 -0.026054803
-0.19949542 0.0030131442 -0.15480834 0.0042472375 0.5665664 -0.19582134 0.21578678 -0.09804448
0.019819714 -0.024526227 -0.062076215 0.0148976855 0.10728803 -0.028969288 -0.08262611 0.58789474
0.06453672 0.17205545 0.12596306 0.15413363 0.20312887 0.2004635 0.04866142 -0.07248206
-0.042668283 0.03508074 0.027370142 0.13213138 0.047204066 0.11479662 0.2746534 -0.060547635
0.06159959 -0.01597002 -0.16028838 -0.11455676 -0.30261162 -0.18000802 0.16941512 -0.05294431
-0.07297423 -0.047128446 -0.13085297 -0.33428338 -0.6944206 -0.4031569 0.22695091 -0.04455576
-0.056683097 -0.048826195 -0.35637638 -0.4176827 -0.54287124 -0.6385856 -0.21680073 0.18764812
-0.13029306 0.4674696 -0.07452948 0.43177533 -0.020037709 0.37670237 -0.010546597 0.3514613
-0.13992502 0.030856948 0.014929317 0.031725474 0.10869571 -0.14601459 0.29048687 -1.3175075
-0.07983235 0.097819686 -0.08005926 0.16811484 -0.07486631 0.17877048 0.0022426832 0.13235706
-0.033576082 0.10749468 -0.089954264 0.12521721 -0.10765405 0.046824608 -0.015522018 0.0094320355
0.15701818 0.11969695 -0.078683995 0.114400156 -0.086630456 0.08517461 0.11044097 0.013158858
-0.05652803 0.2308479 -0.094391614 0.5003277 -0.06282254 0.084696345 -0.15368941 -0.20550019
-0.027173525 -0.115187176 -0.48513737 -0.26516318 -0.048078123 -0.19002232 0.11321463 -0.0035124305
0.21648158 -0.0036186476 -0.80666065 -0.0523331 -0.117948905 -0.064344496 0.3171153 0.11312837
0.31888708 0.09006101 -0.6333883 -0.18045124 -0.15994428 -0.0034230417 0.17072828 0.08003726
0.2802897 0.07855085 -0.7127555 -0.16051395 -0.17391314 -0.2461827 0.042902313 -0.0017303855
0.16289547 0.09610051 0.20545703 -0.06759159 0.23485088 -0.43174085 0.5202225 -0.5352903
0.46511942 -0.5560024 0.17122878 -0.5400946 -0.022410415 0.053690787 0.19870399 0.0019156028
0.1828002 0.19146748 -0.0010132644 0.26235822 -0.3537986 0.0040171877 0.23683463 -0.11192898
0.077099204 0.117023624 -0.074505426 0.08400763 -0.21556707 -0.07706642 0.18385813 -0.35258836
0.2261568 -0.04073027 0.06023119 -0.016741889 -0.12676543 -0.32530707 0.06007052 -0.2713404
0.07332658 -0.072852544 0.04541224 0.01780775 0.25659567 0.2813542 0.5292403 0.58012044

sequential_1/dense_4/MatMul f4 [10, 20]
00000000: a194 01bf b29c 073f d727 833d f863 9a3e
00000010: c911 cf3d 6d0e 5fbf ec3d 21be c2f7 923d
00000020: 1e17 81be b888 c03e 5a3c f6bd c335 b33d
00000030: 94fa 1c3f 8a49 303d f6ba 4fbf 7dcd 7e3d
00000040: 0851 293d 0ef4 d23d ac9d 9c3e 9905 953e
00000050: d296 5d3f 5eb0 de3e b993 293c 82e8 463f
00000060: c0cc d03e 0482 503f bf01 7d3f 942d 233d
00000070: f88d eb3e f636 383f 9987 d13d e68f 873e
00000080: c6c9 f93e f420 363f 68e1 8f3f 9f5f a23d
00000090: c9ee 8bbe 369f 67bd 7dae 17be 0b1d 833f
000000a0: d84b babe dfe9 743f ffbe 97be f816 f03e
000000b0: 4cd5 903f 20c2 e13e 5358 b83e b240 f1be
000000c0: fdfe 473e b84b 033f 6ff3 7b3f 085e 34bf
000000d0: f1d5 3abf 21b4 87be 0bd7 88be 2b25 1bbe
000000e0: c779 ad3e 58bd eabe e52f f13e 4d96 b03e
000000f0: 77f8 503f cee0 bdbe 46d1 603f 34cf 9c3c
00000100: 5027 2a3d e307 583d 4d16 d33e 0e9d 913f
00000110: 0da2 4c3d 2d64 073e 0b5a 803d c8ce 083f
00000120: 7ece b23e 52a9 103f 55c3 043f 7c28 2f3f
00000130: 2f89 c13d 1597 4b3f 088a 0d3f e7b5 263d
00000140: affb 1bbf a6fa 84bd 5cb4 8abf 7717 1d3f
00000150: 4cc2 403e b4c5 2fbe 1d70 04be 91e8 85be
00000160: 38d5 363d 0ab1 f53d b985 303e a0ac 7cbf
00000170: a118 133f da95 0abf d123 58be 860e a3bf
00000180: b985 4cbe 2762 22be 3cba ccbe b51e 3bbb
00000190: c0d2 623e ea0f 843e ab02 c1bb 76f7 d4be
000001a0: 0d0f 943d c9a9 80be 7447 c3bb 18bd 8cbe
000001b0: 9a29 f43e efcf 233e 617f cd3e 7e45 d3bd
000001c0: 295f f0be f69c 77bd 1e10 453d 9fad 15be
000001d0: 5441 583f cf79 a23d 3fca 11bf cfe7 4fbe
000001e0: f736 e13e db7a 2fbf 1236 703e cfb4 c93e
000001f0: 26e0 f9bd 101f 3e3e 72eb 19bf 54da 5b3e
00000200: be0b 983e 42e9 7a3d daaf 9bbb 6b81 44bf
00000210: 6fe3 c53f 432f 05bf 58eb b33e 835f b33d
00000220: e965 973c 5ddc 1a3f 91ad 9dbe 593c 543d
00000230: b7a3 f63e 5eea 833f bb2d d63e 166b 633d
00000240: 074d 1f3f c0df 183f be42 293e d44e 2e3f
00000250: 82e2 3abf 9823 e43d 58eb 473e a5a2 0a3c
00000260: 038b 9dbe 5b1b 7e3e e0e0 a93e 9d6d c03e
00000270: 3c9e 9a3e 707a 163e 7df1 383f 1520 ffbc
00000280: d559 d3be 6f35 32bf 287a 863e 8f8d 49bf
00000290: 3dd7 41be 210e 35bf e855 a8bc 9aa2 233e
000002a0: be01 a5bd 3bc6 2bbf d6c7 48be 46b7 553d
000002b0: 7e9b 3cbf b68b 5abd 01a2 20bd 335a 9c3e
000002c0: 55a3 1e3f e9d9 d43e 8093 28bd be23 a33e
000002d0: 87e1 f73c 4938 563f 5a47 0c3d 16d6 843c
000002e0: 2565 fd3e b14d f43e 5f2c 783c af30 723c
000002f0: f590 153e 58f4 eebc 2e13 093f 4f89 b6bd
00000300: a362 09bf a32a ccbd 62b6 c1bd 8169 dcbc
00000310: f478 08bf c4f1 fc3c 3c75 2b3f cb7e ff3d
-0.50617415 0.52973473 0.06404083 0.30154395 0.10110814 -0.87131387 -0.15746278 0.07176162
-0.2521295 0.37604308 -0.1202323 0.087504886 0.6131985 0.043038882 -0.81144655 0.062207688
0.041337043 0.10300456 0.30589044 0.29105833 0.8655826 0.43493932 0.010350161 0.7769853
0.40781212 0.8144839 0.9883079 0.03983839 0.4600675 0.71958864 0.10230941 0.26476973
0.48786753 0.7114403 1.1240664 0.079283945 -0.27330616 -0.05654832 -0.14812656 1.0243238
-0.3638599 0.9566936 -0.29637906 0.46892524 1.1315093 0.44093418 0.36004886 -0.4711967
0.19530864 0.5128741 0.98418325 -0.7045598 -0.729827 -0.26504615 -0.26726565 -0.15150897
0.3388197 -0.45847583 0.47106853 0.3448967 0.8162913 -0.37085575 0.87819326 0.01914177
0.041541398 0.052741896 0.41227952 1.1376054 0.04995923 0.13221808 0.06267174 0.53440523
0.34923166 0.5650836 0.51860553 0.6842115 0.09449994 0.7952741 0.55288744 0.04070082
-0.60930914 -0.0649312 -1.0836291 0.6136393 0.18824118 -0.17165262 -0.12933393 -0.26153997
0.044636935 0.11996658 0.17238511 -0.98700905 0.57459456 -0.54134905 -0.21107413 -1.2738807
-0.19972886 -0.15857755 -0.39985836 -0.0028552238 0.22150707 0.2579339 -0.0058902106 -0.41595048
0.07229433 -0.25129536 -0.0059594456 -0.27488017 0.4768799 0.15997289 0.40136245 -0.10315989
-0.469476 -0.060452424 0.048111074 -0.14617012 0.8447468 0.079333894 -0.5694923 -0.20303272
0.43987247 -0.6854684 0.23458126 0.39395759 -0.12200956 0.18566537 -0.60124886 0.21470004
0.2969646 0.06125761 -0.0047511877 -0.76759976 1.5460032 -0.5202524 0.3514049 0.08758452
0.018481212 0.604925 -0.30796483 0.051815365 0.4817178 1.0305898 0.41831765 0.055522047
0.6222691 0.59716415 0.16529366 0.6808903 -0.73001873 0.111396015 0.1952337 0.008461629
-0.3077012 0.24815123 0.33179379 0.37583628 0.30198848 0.14695144 0.7224348 -0.031143228
-0.41279474 -0.69612783 0.26265073 -0.78731626 -0.18929763 -0.70724684 -0.020548776 0.15979996
-0.08056973 -0.6709935 -0.19607481 0.052176736 -0.7367476 -0.053355895 -0.039217 0.30537567
0.61967975 0.41572502 -0.041156292 0.31863207 0.030258907 0.83679634 0.034247734 0.016215365
0.4949123 0.47715524 0.015147298 0.014782115 0.14606078 -0.029169247 0.5354489 -0.08912908
-0.5366613 -0.0996907 -0.09458615 -0.026905777 -0.5330956 0.030877002 0.6697576 0.12475356

sequential_1/dense_5/MatMul f4 [5, 10]
00000000: 142f 9bbe 6cfc 813f 9ea8 3cbf 9bde 5c3f
00000010: d58e e7be 6b79 21bf fd3f 943e 91ae 543e
00000020: 7d88 13bf 02c6 50bf 2137 643f 52d5 813e
00000030: ae7b cc3e 83cc 4b3d 9439 66bf 98d9 8c3f
00000040: b660 c1be 1bdf 883f a539 d9bd 798d 803f
00000050: efc6 3fbf 1c18 c63e c565 2b3f 6f5e a0bf
00000060: 22f0 463f 3589 06bf 327c 4bbf a464 9abe
00000070: 9d15 443e f613 91be dbac e3bf 87ec f0bf
00000080: bdf0 93bf e529 523f 646c 65be 0602 00be
00000090: 4a22 7ebf a02c 373f b0e6 4b3f 4a79 903d
000000a0: 15c2 00be e533 19bf ca41 0cbf 22ae 96be
000000b0: f745 613f 1b60 7cbe 2cb8 b03f 7fa6 a1bf
000000c0: 7332 3a3e 5001 fdbe
-0.30309355 1.0155158 -0.7369479 0.8627717 -0.4522616 -0.63075894 0.2895507 0.20769717
-0.5763014 -0.81552136 0.8914662 0.25358063 0.3993811 0.049755584 -0.8993161 1.1003904
-0.37769097 1.0693086 -0.10606698 1.0043174 -0.74912924 0.3869027 0.66952163 -1.2528819
0.77710164 -0.5255311 -0.7948638 -0.30154908 0.1914887 -0.2833554 -1.7787126 -1.8822182
-1.1557842 0.82095176 -0.22404629 -0.12500772 -0.9927107 0.7155247 0.79648876 0.07054384
-0.12574036 -0.5984481 -0.54787886 -0.29429728 0.8799738 -0.24646036 1.3806205 -1.2628936
0.18183307 -0.49415064
